example/.dart_tool/chrome-device/Default/optimization_guide_prediction_model_downloads/130be0c1-fcaf-431c-af3b-8601431d465c/model.tflite (tflite, 498468 bytes, 160 tensors)

context_transformer_0/bottleneck_input/norm/add;StatefulPartitionedCall/context_transformer_0/bottleneck_input/norm/add;context_transformer_0/bottleneck_input/dense/einsum/Einsum;StatefulPartitionedCall/context_transformer_0/bottleneck_input/dense/einsum/Einsum;context_transformer_0/bottleneck_input/norm/mul;StatefulPartitionedCall/context_transformer_0/bottleneck_input/norm/mul;context_transformer_0/bottleneck_input/dense/add;StatefulPartitionedCall/context_transformer_0/bottleneck_input/dense/add;12614;12616;12618 f4 [32]
000000 38 4c 4d bd 1c 7c 2d bd 02 1c 60 bd 48 76 e9 3d
       -0.050121516 -0.042354688 -0.05471421 0.113995135
000010 8a 7f 23 be ec b4 fc bb b9 2c f1 bc 3e 3a 93 bd
       -0.15966621 -0.0077119973 -0.02944027 -0.07188843
000020 2c 01 b7 3d b2 28 c3 3c 90 94 85 bb e5 e1 95 3d
       0.089357704 0.023823116 -0.004076548 0.073184766
000030 04 52 b7 3d 23 12 9b 3d d2 2e 75 bc 80 0f 75 bd
       0.0895119 0.07571819 -0.014964776 -0.059829235
000040 84 b9 76 bd 70 a5 74 bd fa d8 27 3d cc dd 83 bd
       -0.060235515 -0.059728086 0.04097841 -0.06438789
000050 0c d7 35 3e 3f 1d 18 3e 8d b5 5b 3d f3 88 e2 bc
       0.17757815 0.14854906 0.053639937 -0.027653193
000060 a4 26 49 bd 94 5e 5b 3d fa c5 e1 bd 6a 81 35 3d
       -0.049109116 0.053556994 -0.11024089 0.044312872
000070 70 a6 66 3e 2a 23 38 3d 0d 8f 0a 3e eb 10 2a bd
       0.22524428 0.04495541 0.13531132 -0.04152004

context_transformer_1/bottleneck_input/norm/add;StatefulPartitionedCall/context_transformer_1/bottleneck_input/norm/add;context_transformer_0/bottleneck_input/dense/einsum/Einsum;StatefulPartitionedCall/context_transformer_0/bottleneck_input/dense/einsum/Einsum;context_transformer_1/bottleneck_input/norm/mul;StatefulPartitionedCall/context_transformer_1/bottleneck_input/norm/mul;context_transformer_1/bottleneck_input/dense/add;StatefulPartitionedCall/context_transformer_1/bottleneck_input/dense/add;context_transformer_1/bottleneck_input/dense/einsum/Einsum;StatefulPartitionedCall/context_transformer_1/bottleneck_input/dense/einsum/Einsum;12706;12708;12710 f4 [32]
000000 16 6c 42 be 8c ea 8d bc 30 c5 31 be 4e 27 09 be
       -0.18986544 -0.017323755 -0.17360377 -0.133939
000010 e6 c7 83 bb 71 0a 82 3d b6 6f 00 3e 9a 62 cf 3d
       -0.0040216325 0.06349648 0.12542614 0.10126229
000020 99 6a 50 3c 44 a7 25 3e 98 25 76 3e 81 c0 24 3e
       0.012720727 0.16177088 0.24037778 0.1608906
000030 ee d5 0a 3e 3d 7f 3f bc 92 2b cc bc f7 a5 52 3e
       0.1355817 -0.011688051 -0.02492312 0.20571123
000040 ae f7 9b bd 33 a2 82 3d e7 93 a6 bd 9c 42 aa bd
       -0.076156005 0.06378593 -0.08133679 -0.08313486
000050 d1 10 88 3d 08 09 92 3d 42 8f cd 3d d0 7d ae bd
       0.066438325 0.07130629 0.1003709 -0.085200906
000060 1c 6c 73 3e 4d 18 7c be 80 cd 27 be 57 75 52 3d
       0.23771709 -0.24618645 -0.16386986 0.051381435
000070 26 6d 42 bc 8f 98 2c bc 1a 4f 4c 3d b0 6e 79 3d
       -0.011866843 -0.01053442 0.049880125 0.060896575

mention_transformer_0/bottleneck_input/norm/add;StatefulPartitionedCall/mention_transformer_0/bottleneck_input/norm/add;sequential_1/dense_3/Tensordot/shape;StatefulPartitionedCall/sequential_1/dense_3/Tensordot/shape;mention_transformer_0/bottleneck_input/norm/mul;StatefulPartitionedCall/mention_transformer_0/bottleneck_input/norm/mul;mention_transformer_0/bottleneck_input/dense/add;StatefulPartitionedCall/mention_transformer_0/bottleneck_input/dense/add;mention_transformer_0/bottleneck_input/dense/einsum/Einsum;StatefulPartitionedCall/mention_transformer_0/bottleneck_input/dense/einsum/Einsum;12810;12812;12814 f4 [32]
000000 cb 6a c9 3d ba 3a a9 bd b6 5f 37 3e 7e 79 77 bd
       0.09834822 -0.08263154 0.17907605 -0.0604186
000010 cc 46 a2 bd af 5c 1c be c3 d3 94 3e e2 52 2c be
       -0.0792366 -0.15269731 0.2906781 -0.16828492
000020 5e b7 e0 bc e6 6c 2e bd 40 49 90 3d 70 1a 15 bc
       -0.027431186 -0.042584322 0.07045221 -0.0091005415
000030 36 ca c0 bc 88 b4 f8 3d 7c af bf bd e0 f1 b6 bd
       -0.023533922 0.121438086 -0.09359643 -0.08932853
000040 0e 59 de 3d 7f 45 43 3e 7e ec 7e 3e 6e 8d 0f bd
       0.108568296 0.1906948 0.24894902 -0.035046987
000050 28 23 a0 3c af cd a3 3d 4e 34 41 3e 72 6a d5 3d
       0.019548014 0.079982154 0.18867609 0.104206935
000060 c6 70 a1 bd f4 c5 4c be e4 07 65 bc 06 df 3a 3e
       -0.07882838 -0.19997388 -0.013978932 0.18249139
000070 69 89 36 3e d6 0b 60 3c d6 fe 8b 3e ca c6 1b 3e
       0.17825855 0.013674697 0.27342862 0.15212551

mention_transformer_1/bottleneck_input/norm/add;StatefulPartitionedCall/mention_transformer_1/bottleneck_input/norm/add;sequential_1/dense_3/Tensordot/shape;StatefulPartitionedCall/sequential_1/dense_3/Tensordot/shape;mention_transformer_1/bottleneck_input/norm/mul;StatefulPartitionedCall/mention_transformer_1/bottleneck_input/norm/mul;mention_transformer_1/bottleneck_input/dense/add;StatefulPartitionedCall/mention_transformer_1/bottleneck_input/dense/add;mention_transformer_1/bottleneck_input/dense/einsum/Einsum;StatefulPartitionedCall/mention_transformer_1/bottleneck_input/dense/einsum/Einsum;12902;12904;12906 f4 [32]
000000 20 39 a5 bd a9 8d 75 3d 49 5e c8 3d f2 cd 22 be
       -0.08067536 0.05994955 0.097836085 -0.15898874
000010 f6 cb c6 bd 68 ae 82 bc 43 3e 33 be 92 2b 0f be
       -0.09706871 -0.015952304 -0.1750422 -0.13981465
000020 96 8b 74 be 48 ec c1 3d 6e 62 0a 3d 68 b8 d8 bc
       -0.23881373 0.09468895 0.033785276 -0.02645512
000030 16 2c 00 bc 9a 0e f1 bc 53 ca 77 3d 2b c3 30 be
       -0.007823011 -0.029425908 0.060495686 -0.1726195
000040 3c e2 eb ba 46 2e 6b bd 45 6f 8d 3e 51 f1 40 3d
       -0.00179965 -0.057417177 0.27623954 0.047105137
000050 1f 74 fe 3c ec cc b7 bd 26 4a 9a bc 4b 9e 87 3c
       0.03106123 -0.089746326 -0.018834185 0.016554972
000060 8e 06 22 be 02 06 2e 3d 06 b1 20 3e 6a 52 a4 bd
       -0.15822813 0.0424862 0.15692529 -0.08023532
000070 7a e7 58 3d ca 57 bd bd ea cc 6d 3c de 22 ce 3d
       0.05295513 -0.0924526 0.014514187 0.10065244

context_transformer_0/attention/value/add;StatefulPartitionedCall/context_transformer_0/attention/value/add;context_transformer_0/attention/value/einsum/Einsum;StatefulPartitionedCall/context_transformer_0/attention/value/einsum/Einsum;12638 f4 [32]
000000 85 ff 32 bd ff 99 ba bc 97 f9 8b bd ea 2a 25 bd
       -0.043700714 -0.02277851 -0.06834715 -0.04032413
000010 0e fc 6f 3c a9 16 f6 3b af 1a 5a bd f3 19 38 3d
       0.014647497 0.0075100255 -0.053248104 0.044946622
000020 06 9d c2 bd f3 8c 1a 3d a4 e4 04 3d 84 0d 60 3d
       -0.09502606 0.037732076 0.03244461 0.05470039
000030 0c e0 62 3d a3 ed af bd 27 6b 62 3d 61 f3 58 3d
       0.05538945 -0.085902475 0.05527797 0.05296648
000040 48 c4 3e bb fc 4f 58 bd e9 5b 8a 3d 9b f3 80 bd
       -0.0029108692 -0.052810654 0.06755812 -0.06296464
000050 64 c9 0b 3d 1b 91 8c 3d 3e d1 00 bd 55 5e 10 bd
       0.034127608 0.06863614 -0.03144955 -0.035246212
000060 87 36 d7 3c 65 e3 b2 3d 92 29 ac 3d b3 77 c1 bc
       0.026271118 0.08734778 0.084063664 -0.023616647
000070 e9 68 6a 3d 25 92 19 bd 84 aa 31 bd 5a b8 0c bd
       0.057228956 -0.03749289 -0.043375507 -0.0343555

context_transformer_0/bottleneck_input/norm/mul;StatefulPartitionedCall/context_transformer_0/bottleneck_input/norm/mul;context_transformer_0/bottleneck_input/dense/einsum/Einsum;StatefulPartitionedCall/context_transformer_0/bottleneck_input/dense/einsum/Einsum;context_transformer_0/bottleneck_input/dense/add;StatefulPartitionedCall/context_transformer_0/bottleneck_input/dense/add;12614;12616 f4 [32, 32]
000000 df 33 5f be 04 14 9d be 66 ec 06 be f0 a8 32 3e
       -0.21797131 -0.30679333 -0.13176116 0.17447257
000010 8a 9c 0b bf b9 38 c4 be 59 16 78 3d 2e d2 f1 bd
       -0.54535735 -0.38324526 0.060568187 -0.11807667
000020 3d f7 30 be 72 72 80 3e 69 d7 d9 3c dd 06 44 bc
       -0.17281814 0.25087315 0.026591973 -0.011964527
000030 29 5b db 3c c9 ba 4b 3e 03 57 44 be 30 a7 0d 3d
       0.026776867 0.19895472 -0.19173817 0.03458327
000040 3b b3 e2 be c2 c9 53 be c0 63 c3 bd 82 80 35 3d
       -0.44277367 -0.20682433 -0.0954051 0.044312008
000050 6e 05 7c bd 5a cc a1 be 54 be a0 be 71 0f 23 3e
       -0.061528616 -0.3160122 -0.3139521 0.15923859
000060 91 8a 28 be c0 b9 eb 3d 6e 63 25 be 8f 7f 97 be
       -0.16459109 0.115100384 -0.1615121 -0.29589507
000070 49 22 7a 3f c4 d6 b9 be 09 cc 2b 3c 78 82 44 be
       0.97708565 -0.36296666 0.0104856575 -0.19190395
000080 d2 e2 1c be 9d c4 10 bf b5 46 4f be 30 55 37 bd
       -0.153209 -0.5655001 -0.20241816 -0.044758976
000090 ca 6b cf bc 35 b8 83 3e 63 cf 8e 3b 48 42 7e be
       -0.025319953 0.25726476 0.0043582185 -0.24829972
0000a0 88 14 ee 3d 66 95 89 be a4 b4 91 3e 05 c1 5e bd
       0.1162501 -0.26871794 0.2845813 -0.054383297
0000b0 33 41 56 be 93 2d 1f 3e 8c 91 f0 bd b6 8c e3 3e
       -0.20923309 0.15544729 -0.11746511 0.4444329
0000c0 c1 26 91 3e db be ad 3d 9f 5f 9d bb fa 52 16 3f
       0.2834988 0.084836684 -0.0048026587 0.5872036
0000d0 bd bd ca be 78 70 1f bf b8 6d 6a 3e 78 40 ae be
       -0.39597884 -0.6228099 0.22893417 -0.3403356
0000e0 c6 3c 9b 3d 11 ad 82 3d 97 dd c6 3e cd 28 27 be
       0.07579951 0.06380666 0.38840935 -0.16324158
0000f0 64 fc b2 3d f5 8c 3c 3d d1 16 7e 3e 74 17 96 bd
       0.08739546 0.046032865 0.24813391 -0.07328692
000100 78 00 66 bd 90 55 13 be c6 e1 07 3c da 7b 06 be
       -0.05615279 -0.14388108 0.008293575 -0.13133183
000110 d8 6e f1 3d 88 5f 5e bc bc e2 c3 3c 17 12 88 3d
       0.1178872 -0.013572581 0.023911826 0.06644075
000120 90 c3 7c bb 1f f4 1c 3d 39 71 bf bd d4 ef 8f bd
       -0.0038568713 0.03831875 -0.093477674 -0.070281655
000130 9e 49 9d bd 0e b5 67 3d 8e 1a 80 bd f7 ba 07 be
       -0.07680057 0.05656915 -0.06255065 -0.13254915
000140 db 28 a1 bd ad 10 e9 3d c6 77 0b 3e 34 ca 6a 3d
       -0.07869121 0.11380134 0.13619909 0.057321742
000150 bc 36 ef bd 01 7e 09 bd 18 60 8b be 22 45 73 3d
       -0.11680362 -0.033567432 -0.2722175 0.059392102
000160 cd d8 0e be b9 aa 85 3e 7d 06 51 3d c9 c8 be 3d
       -0.1394989 0.26106814 0.05103158 0.093156405
000170 f7 9a 00 3e a5 8e 9a 3d 8e 10 50 ba 1f d9 21 3c
       0.12559114 0.075467385 -0.0007937037 0.009878426
000180 24 14 c8 3e 3a 1f 67 3e 5b f4 72 bd ad ac d8 bd
       0.39077866 0.22570506 -0.059315067 -0.1057981
000190 b9 ff f4 bb e9 32 62 3e fc 96 ad bc 7b ae 2d bd
       -0.0074767736 0.22089733 -0.021190159 -0.042402726
0001a0 24 28 84 be 98 5e 37 3e 90 4a 83 3e 10 1d 79 3d
       -0.25811875 0.17907178 0.25642824 0.06081873
0001b0 c6 ea fe bc 49 2c 1d be d0 78 79 3c 5c 82 28 be
       -0.031117808 -0.15348925 0.015226558 -0.16455978
0001c0 67 59 2b 3e 2b a2 41 be 7b 7e 9b 3d 8d ea 9c be
       0.16733323 -0.18909518 0.075924836 -0.30647698
0001d0 07 7c bd bd 60 1b c4 3e c1 5e 29 be 9a cc 8c 3e
       -0.09252172 0.38302135 -0.16540052 0.2749985
0001e0 f4 2c b3 bd 1c 61 49 be 6b b3 1d be 70 00 4e 3c
       -0.087488085 -0.1966595 -0.15400474 0.0125733465
0001f0 65 92 87 be 81 86 ee bd b4 06 80 3e 76 75 99 be
       -0.26478878 -0.11646748 0.25005114 -0.29972428
000200 7b d6 12 3d 42 84 a1 be a0 ae 58 be 58 5e 0f 3e
       0.035849076 -0.31546217 -0.21160364 0.14000833
000210 94 28 ba be 15 48 fd bd 0b 93 12 be 33 47 90 be
       -0.36359084 -0.12367264 -0.14313905 -0.2817932
000220 ff 13 02 3f 2c 49 2a be bf c2 00 bf 0d 97 01 3e
       0.5081176 -0.16629475 -0.5029716 0.12655278
000230 4c 6e 48 bc 2e 4f ed bd d0 5a 3f 3d ef 1a 00 3f
       -0.012233328 -0.11587368 0.046717465 0.500411
000240 26 39 13 be 08 ea dc 3d e4 41 19 3e 2c 3c 36 bd
       -0.14377269 0.107868254 0.14966542 -0.044490978
000250 a2 25 ec 3e f0 7f 43 be ed 72 d3 3e 81 bd 20 be
       0.46122462 -0.19091773 0.4129862 -0.1569729
000260 32 5f 60 3e 9b 3b 98 3e 31 a3 91 bb c1 c6 b1 3e
       0.21911314 0.29732975 -0.0044445028 0.3472195
000270 7e c1 8e be 93 f4 e4 bb 3f c2 84 be 7a 86 ee 3d
       -0.27881998 -0.0069871633 -0.25929448 0.11646743
000280 d5 3e ff bd 07 cf 30 be 0d 1c 2d bc ca c7 0c be
       -0.12463156 -0.17266475 -0.01056577 -0.13748088
000290 fc aa 67 bd 18 d3 db bd 0a c7 c6 3d 5d 87 96 bd
       -0.056559548 -0.10733622 0.097059324 -0.07350037
0002a0 ae 5d ff 3d 6c b8 59 3e c4 6d 9c bd 93 26 e8 bd
       0.1246904 0.21261758 -0.07638124 -0.113354824
0002b0 66 70 1e be 61 83 42 3e 98 15 19 be 51 b8 b1 3c
       -0.15472564 0.1899543 -0.14949644 0.021694334
0002c0 f7 4d 12 be b8 b6 6c 3c 45 a1 62 3e 16 67 e1 3d
       -0.14287554 0.01444786 0.22131832 0.1100599
0002d0 39 4f 9f 3d 6b c6 80 3d b2 10 d1 3a 61 23 f4 3d
       0.077787824 0.06287845 0.001595041 0.119208105
0002e0 71 73 5d be 4f d7 97 3e 58 98 f6 3d dc 23 80 bc
       -0.21626069 0.29656455 0.12040776 -0.0156421
0002f0 4c f4 84 3e fc b4 c6 3c 79 ff 42 3e 4d 61 4e 3e
       0.25967634 0.024256222 0.19042768 0.20154305
000300 07 e1 1c be d2 03 e2 bd ae 12 34 3d 9d e8 07 3e
       -0.15320216 -0.11035885 0.043963127 0.13272329
000310 83 e7 57 bd 51 0c bf 3d 9c 1b 65 3d 10 9c d1 bd
       -0.05271102 0.09328521 0.055934533 -0.10234845
000320 13 0f 92 be 44 39 86 3d 58 d2 4c 3e 7e e2 2d 3e
       -0.28527126 0.06553891 0.20002115 0.16980931
000330 89 87 5f 3d 02 b7 df 3c cd 39 15 3e a2 62 8a 3d
       0.054572616 0.027308945 0.1457283 0.06757094
000340 30 8c 8b 3b aa b9 e5 bb e7 b3 39 3e 1e d1 30 3d
       0.004258655 -0.0070106583 0.18135034 0.04316818
000350 75 1d f2 bc 6f 33 75 3e 89 04 1e 3e 48 1c d1 bd
       -0.029555062 0.23945402 0.15431418 -0.10210472
000360 39 27 91 3e bc d3 0f bd e9 b3 17 3d e4 6a c5 3d
       0.28350237 -0.035114035 0.03703681 0.096395284
000370 50 4a 91 3d ce e8 95 bd 62 7b 07 3c 92 af f3 bd
       0.07094252 -0.073197946 0.008269163 -0.11898722
000380 ff fb 4f 3e 3c 34 46 be e2 72 06 3f d0 ab 94 be
       0.20310973 -0.19355863 0.5251905 -0.29037333
000390 9a 80 a8 be e8 71 cd 3d ed c6 ac bd 13 41 b7 be
       -0.32910615 0.100314915 -0.084363796 -0.35791835
0003a0 1c ab 8e 3c a1 eb 27 3f a6 19 89 be ba d3 44 bf
       0.017415576 0.65593916 -0.2677738 -0.7688557
0003b0 96 07 50 be e4 24 15 3f 3f 0a 12 ba 4d 43 b6 3c
       -0.20315394 0.58259416 -0.0005570985 0.022248888
0003c0 0e 9d 11 bf 24 ab a5 3e 79 9c c4 3e 04 26 99 3d
       -0.5688027 0.32357132 0.3840063 0.07477954
0003d0 6d 9f 84 3b df 83 08 3f ee 16 f5 bd be bc 66 be
       0.0040473253 0.5332622 -0.11967264 -0.22532937
0003e0 12 95 92 3e f0 08 bb 3e 17 82 d6 3e 7f 15 2b bd
       0.28629357 0.36530256 0.41896126 -0.041768547
0003f0 5f 3d ec bd d7 31 b3 3e 22 ce 69 3e 52 2b f9 bd
       -0.11535143 0.34998962 0.2283254 -0.12166466

context_transformer_1/attention/value/add;StatefulPartitionedCall/context_transformer_1/attention/value/add;context_transformer_0/attention/value/einsum/Einsum;StatefulPartitionedCall/context_transformer_0/attention/value/einsum/Einsum;context_transformer_1/attention/value/einsum/Einsum;StatefulPartitionedCall/context_transformer_1/attention/value/einsum/Einsum;12730 f4 [32]
000000 2f 39 93 bd 83 31 d4 3d f6 6d 05 be d4 e7 20 3d
       -0.07188641 0.10361006 -0.13030228 0.03928359
000010 b1 3f 6e bd f2 b6 05 be 05 88 06 be 17 3a 89 3d
       -0.05816621 -0.1305807 -0.13137825 0.06700533
000020 a2 a5 4f be b6 27 ab bd 98 f7 13 be aa 1b f3 3c
       -0.20278028 -0.08357184 -0.14449918 0.029676277
000030 bd 5a e3 bd 05 fd 2e bd fc e9 15 bd 25 33 86 be
       -0.11101291 -0.042721767 -0.036600098 -0.26210895
000040 24 6d af bc 70 f9 c2 3d c1 42 16 bd 4e 63 2c 3d
       -0.021414347 0.09520233 -0.036684755 0.04208689
000050 39 5d 0e 3e c6 e2 df 3d 10 94 2e 3e 9c 2f 14 3e
       0.13902749 0.109319255 0.17048669 0.14471287
000060 dd 6a 10 be e3 3f 47 3c f1 8e ba 3d cb 5b 89 3b
       -0.14103265 0.012161228 0.09109295 0.004191851
000070 87 51 16 bd c0 57 92 bc 03 6f 5a 3d 6e b6 91 bc
       -0.036698844 -0.017864108 0.053328525 -0.017787185

context_transformer_1/bottleneck_input/norm/mul;StatefulPartitionedCall/context_transformer_1/bottleneck_input/norm/mul;context_transformer_0/bottleneck_input/dense/einsum/Einsum;StatefulPartitionedCall/context_transformer_0/bottleneck_input/dense/einsum/Einsum;context_transformer_1/bottleneck_input/dense/add;StatefulPartitionedCall/context_transformer_1/bottleneck_input/dense/add;context_transformer_1/bottleneck_input/dense/einsum/Einsum;StatefulPartitionedCall/context_transformer_1/bottleneck_input/dense/einsum/Einsum;12706;12708 f4 [32, 32]
000000 c6 48 5f be 75 cd 1f 3d 4e c8 89 be 07 5e df be
       -0.21805105 0.0390143 -0.26910633 -0.43626425
000010 a5 e0 d1 be 01 d1 39 be c3 08 34 3e 6c 73 eb bd
       -0.40991703 -0.18146135 0.17581467 -0.11496624
000020 16 2d 52 bd c5 17 1d be ab 30 66 be 85 06 5e 3e
       -0.05131253 -0.15341099 -0.22479503 0.21682175
000030 22 cb ab 3d b0 ec e0 3e d7 a6 aa 3d be 71 54 bd
       0.08388354 0.43930578 0.083326034 -0.051866286
000040 b4 43 5a bc 42 86 f5 bc ef cd 7e be ab 57 76 3d
       -0.013321806 -0.029971246 -0.24883245 0.0601422
000050 34 0e 8f bd 41 65 5b be 4b ff b7 be 73 ba e0 3e
       -0.06985131 -0.21425344 -0.3593696 0.4389225
000060 be f3 4a be e7 50 f3 3d 26 3b 58 bb 97 73 f7 bd
       -0.19819543 0.11880665 -0.003299424 -0.12082594
000070 7b e1 00 3e b5 d1 11 be c9 37 bc bd 86 f4 ad be
       0.12586014 -0.14240153 -0.09190328 -0.3397562
000080 de d1 28 3f cf 14 e9 3e ad d1 28 be f5 14 45 3e
       0.6594523 0.45523688 -0.16486235 0.19246276
000090 96 33 db 3d 98 e2 eb 3e f0 af 2c 3e 67 07 c4 be
       0.107031986 0.46071315 0.1686399 -0.38286898
0000a0 86 4b 2c bf b5 50 e4 3d a2 f3 12 3e 3f 4b 9d bd
       -0.6730274 0.11148206 0.14350751 -0.07680368
0000b0 8b 53 e5 3e bc 34 82 3e 63 10 54 3e e2 94 65 be
       0.447903 0.25430858 0.20709376 -0.22420076
0000c0 9e f5 10 bd 20 b8 0c bf 26 77 c6 be f1 11 a9 3e
       -0.03539049 -0.5496845 -0.38762778 0.330215
0000d0 90 e6 9f be 75 60 a8 be 61 57 d9 bd 9d 2c e2 3d
       -0.31230593 -0.3288609 -0.10612369 0.110436656
0000e0 0a 48 6e be b8 73 4e be 2a 93 b1 be 7b 48 5c be
       -0.23269668 -0.2016133 -0.3468259 -0.21512024
0000f0 27 10 c3 3e 0f 35 35 be 48 c7 8b 3e 7f 8b 6e be
       0.3809826 -0.17696021 0.27300477 -0.23295401
000100 40 a6 20 be aa d8 4d be 86 a6 34 be f0 10 b5 3c
       -0.1568842 -0.20102182 -0.17641649 0.022102803
000110 4c 3a d9 bd a1 cf 84 3e ad 96 96 3d 39 07 d1 bc
       -0.10606822 0.25939658 0.07352958 -0.02551614
000120 c7 7a 22 3e b0 13 8f bd 5e d9 af be 3c 36 8a 3d
       0.15867148 -0.06986177 -0.34345526 0.06748626
000130 93 c6 85 be b6 34 c5 3d 3c ca 17 be b4 c2 54 be
       -0.26128063 0.096291944 -0.1482324 -0.20777398
000140 d3 2c f4 bd de 06 65 3d 70 64 bd be 12 26 2e be
       -0.11922612 0.055914752 -0.3699069 -0.1700671
000150 aa 26 98 bd 26 1e bf be a4 2b f5 3c 22 75 47 be
       -0.074292496 -0.3732769 0.029928036 -0.19478276
000160 ec 57 73 be fb fd 15 be 3b bb 31 bd a6 c3 bd 3d
       -0.23764008 -0.14647667 -0.043391448 0.092658326
000170 3e af 12 bd 1e 19 d5 3b 55 5f cd bd dc f3 ca bd
       -0.035811655 0.0065032383 -0.10027949 -0.09909794
000180 ef ec b1 be df 99 b8 be cc 6c f1 bd 56 5e b4 3e
       -0.34751078 -0.36054894 -0.117883295 0.35228223
000190 8d 05 06 be e2 0b 47 3d e7 fd 07 be e6 5d 6f be
       -0.13088055 0.048595317 -0.1328045 -0.23375663
0001a0 78 b0 7d bf bf f4 97 3d f3 ef 75 3e d8 97 66 3a
       -0.99097395 0.074197285 0.24017315 0.000879643
0001b0 d4 91 74 3e b5 a1 cc bd 06 48 73 be 99 46 c2 3e
       0.23883754 -0.09991781 -0.23757944 0.37944487
0001c0 b9 5c 81 be d3 cc b7 3e 9e 85 d4 3e 3d fe fc 3b
       -0.25266054 0.35898456 0.41508192 0.0077207373
0001d0 a8 3c 22 bf f3 67 00 3e 6d da 10 3d 6f 85 24 3e
       -0.63373804 0.12539653 0.035364557 0.16066526
0001e0 9d f9 0f be 0e 73 33 3e d6 c2 01 bf 36 b9 5d 3e
       -0.14060064 0.17524359 -0.5068792 0.21652684
0001f0 18 5b 14 3f 98 26 fe be 66 56 dc bd 29 e9 8c bd
       0.579515 -0.4963882 -0.10758667 -0.06880409
000200 2c e9 ac 3e a6 be a5 3e 9e cd 41 3e 27 55 3d 3e
       0.33771646 0.32372016 0.18926093 0.18489514
000210 4a d3 9b be e1 1f 8a be f3 a6 dc 3d 07 25 20 be
       -0.30434638 -0.26977447 0.107740305 -0.15639125
000220 3d 6e fc be 65 9d 84 3e cb ea 20 be 71 65 92 be
       -0.49302855 0.25901332 -0.15714566 -0.2859302
000230 35 ea 09 3f e1 6c 64 bf cf ab 93 bd 1e 35 0a 3f
       0.53872997 -0.89228636 -0.07210504 0.539873
000240 33 be 85 3c 21 13 2a be 5b b4 a6 3d 1e 2c c5 3c
       0.016326046 -0.1660886 0.08139869 0.024068888
000250 0a 9e 17 3e 71 58 75 3d e8 d6 a1 3e c7 78 9b 3d
       0.14806381 0.059898797 0.31609273 0.07591396
000260 ea aa 1a bf 2f 90 00 bf 8e 98 d8 be 5e b5 08 be
       -0.60417044 -0.50220007 -0.4230389 -0.13350436
000270 06 a9 17 bf 39 81 ef bd 5c cd a5 bd 3a 6b 09 3d
       -0.59242284 -0.11694569 -0.0809581 0.033549525
000280 77 d3 9a be e4 57 84 bd 26 99 6f 3d 0c bd 6d 3e
       -0.3023946 -0.06462076 0.058495663 0.23216647
000290 6a 1a b4 3d eb a1 bf bd b8 8d 91 bd 81 79 b0 3e
       0.087941006 -0.09357055 -0.07107109 0.344677
0002a0 a2 3f b6 be 38 ab a1 bc c3 63 8f 3d de 68 d8 3e
       -0.35595423 -0.019734964 0.0700145 0.42267507
0002b0 3a 1f d1 bd 4b c5 0c 3e a9 f8 92 be c8 a5 a3 bd
       -0.10211034 0.13747136 -0.28705338 -0.07990605
0002c0 98 af 94 3e da 6d ca 3e 8c 8e 93 3d 8a 36 ab be
       0.29040217 0.39536935 0.07204923 -0.33440048
0002d0 8a 31 b3 3d 3b 2d 06 be 51 f0 93 bb b0 81 43 bd
       0.08749683 -0.13103192 -0.004514732 -0.0477311
0002e0 1f 3d c2 bb 17 97 61 3e 64 43 1e be e6 cd 84 3e
       -0.0059276964 0.22030292 -0.15455395 0.25938338
0002f0 2a cd 84 bc 09 6b 01 be 49 f9 52 3d 9b 57 7f be
       -0.016211111 -0.12638487 0.051507268 -0.24935763
000300 ca 5f 74 be a1 fa 03 be e9 a8 c6 3d c4 d8 1c bf
       -0.23864666 -0.12888576 0.09700186 -0.6126826
000310 00 d8 10 be 38 8a 8f bc 90 62 75 bd 03 0f 13 3c
       -0.14144897 -0.017521963 -0.05990845 0.008975747
000320 f4 c1 2f bc df 97 c1 bd ae fe f0 be b0 b9 8a be
       -0.010727394 -0.09452795 -0.47069305 -0.27094793
000330 f2 6e 18 3e c5 60 37 be aa b0 68 3e 3c 3d 75 3d
       0.14886072 -0.17908008 0.22723642 0.05987285
000340 0d c7 a9 3c 12 4c 5c be 8b ba ed bb 70 8f 71 be
       0.020724798 -0.21513394 -0.0072549037 -0.23589873
000350 9d 4b c8 be 5e 56 3b be 29 b5 7e be a8 13 fd be
       -0.39120188 -0.18294665 -0.24873795 -0.4942906
000360 bc a9 1f 3b 6f c2 58 be bc 79 2c 3e 95 87 14 3f
       0.0024362644 -0.2116792 0.16843313 0.5801938
000370 24 a9 f2 3d af 1e e5 3d ff 7d 8d be 96 c7 b7 be
       0.11848667 0.11187493 -0.2763519 -0.3589446
000380 a3 0d f6 3d 24 49 5d 3e d9 79 9f 3d 84 6e d4 3e
       0.1201432 0.21609932 0.077869125 0.41490567
000390 00 65 9b 3d 85 e6 2d 3e b5 30 87 3d 9b 1e a5 3e
       0.075876236 0.16982467 0.06601087 0.32249913
0003a0 21 84 36 bd 6e ec 60 3e 7d 07 8e 3e e2 ea 28 3e
       -0.0445596 0.21965191 0.27740088 0.1649585
0003b0 97 ee de bd 89 4f a2 bd 8d 60 70 be e5 d7 45 be
       -0.10885351 -0.079253264 -0.23474331 -0.19320638
0003c0 68 a3 7c bd f7 09 ee be e9 db 2d 3e 94 81 6f be
       -0.061679274 -0.46491978 0.1697842 -0.23389274
0003d0 3a aa 8a be cf ab e5 3e 3b 3f 8f be 34 94 b6 3d
       -0.27082998 0.44857642 -0.2797793 0.08914986
0003e0 d6 9a 97 be 03 5e 3c 3e e3 be 41 3d 48 c0 4a 3e
       -0.29610318 0.18395238 0.047301184 0.19799912
0003f0 5b 80 07 3e 5c 41 a1 bd f0 0e 7c bc 61 ee 79 be
       0.13232557 -0.078737944 -0.015384421 -0.2440734

mention_transformer_0/attention/value/add;StatefulPartitionedCall/mention_transformer_0/attention/value/add;mention_transformer_0/attention/value/einsum/Einsum;StatefulPartitionedCall/mention_transformer_0/attention/value/einsum/Einsum;12834 f4 [32]
000000 c1 6c b8 bd b5 bd b7 3d 66 f4 35 be 4b c0 1f 3e
       -0.09005118 0.089717306 -0.17769012 0.15600698
000010 d0 aa 90 bb df 89 d9 3e 36 9f ee 3d b0 09 f5 bb
       -0.0044148937 0.42488 0.11651461 -0.0074779615
000020 63 84 b0 bb c7 0d a0 3d 0f 12 77 3e 2b 91 61 3e
       -0.0053868755 0.07815128 0.24127983 0.22028033
000030 c9 af 8d 3d 5e f5 0c be 44 c7 52 3e 62 f3 77 3c
       0.06918294 -0.13765475 0.20583826 0.015133711
000040 ff 61 74 bd b4 eb cc 3b 3f 6f 57 3e a0 71 05 bd
       -0.05966377 0.006253684 0.21038531 -0.032579064
000050 ec 02 2d 3e d0 7b 89 3e b0 4c e2 bd 24 90 27 3e
       0.16895646 0.26852274 -0.11049783 0.16363579
000060 f4 b5 56 3e a1 41 b1 3d 85 94 bd bc 0b 75 ce 3c
       0.20967847 0.08655096 -0.023142109 0.025202295
000070 d6 85 eb bd b0 99 4d bc a3 86 05 be f7 24 3e 3e
       -0.115001366 -0.012548849 -0.13039641 0.18568788

mention_transformer_0/bottleneck_input/norm/mul;StatefulPartitionedCall/mention_transformer_0/bottleneck_input/norm/mul;sequential_1/dense_3/Tensordot/shape;StatefulPartitionedCall/sequential_1/dense_3/Tensordot/shape;mention_transformer_0/bottleneck_input/dense/add;StatefulPartitionedCall/mention_transformer_0/bottleneck_input/dense/add;mention_transformer_0/bottleneck_input/dense/einsum/Einsum;StatefulPartitionedCall/mention_transformer_0/bottleneck_input/dense/einsum/Einsum;12810;12812 f4 [32, 32]
000000 c5 b1 20 3e c6 d9 0a 3e a8 64 35 be 7c 02 f0 be
       0.15692814 0.13559636 -0.17714179 -0.46876895
000010 00 ea 88 be 33 45 33 3e 4a e2 af be f3 ff 01 bf
       -0.26741028 0.17506866 -0.34352332 -0.5078117
000020 0b 95 97 be 51 56 18 3d 9f e8 1d be 6b de c4 bd
       -0.29605898 0.037191693 -0.15420769 -0.09612735
000030 b4 06 a6 3d dd 77 ee be ed f3 e9 bd ed 24 ae bd
       0.08106747 -0.46575823 -0.11423478 -0.08503137
000040 bb fc 1c be 76 33 d6 3d 4f bb be bd c0 b5 02 3e
       -0.15330784 0.10459034 -0.0931307 0.12764645
000050 3f d7 ff 3e 03 6a aa 3b 82 e6 d3 bc f6 9a 91 3c
       0.49968907 0.005200626 -0.02586675 0.017774086
000060 6d bf 9e 3e 4b b6 18 3d 28 9c db 3e 14 05 6d 3d
       0.3100542 0.037283223 0.42892575 0.05786617
000070 3c 59 05 3e f6 a0 b2 3c 91 66 cf 3d 47 7e 8c 3d
       0.13022321 0.021805268 0.10126985 0.06860023
000080 f5 44 0d be 24 98 4a 3e 92 4f 1f 3e 8b 03 43 3f
       -0.13795836 0.197846 0.15557697 0.7617728
000090 0d 1e b0 bd 4e 00 ab 3e 12 0e 82 be 26 01 b8 bd
       -0.08599482 0.3339867 -0.2540136 -0.08984594
0000a0 ec 46 f4 3c 9d df 49 bd 2c 3d 5b bd 3e 78 3c 3e
       0.029818974 -0.04928552 -0.053525135 0.18405244
0000b0 f0 53 1d 3e 6d 78 28 be d8 a8 63 be 6b f2 57 3e
       0.15364051 -0.16452189 -0.22232378 0.21088569
0000c0 a3 27 36 be 40 a9 6b bd d7 29 27 3d 28 ac d5 be
       -0.17788558 -0.057534456 0.040811386 -0.41732907
0000d0 90 73 7e bc cd ba 09 be 2d 4a 89 bc 2f 5b bf bd
       -0.015530482 -0.13450165 -0.016759003 -0.09343564
0000e0 a2 ff 03 3e 15 8f b7 3d 41 77 78 3d ff 77 c8 3c
       0.12890485 0.089628376 0.060660604 0.024471281
0000f0 d3 72 dc bd 8a 92 b0 3e 55 e9 1c be 52 b6 b9 3c
       -0.107640885 0.344868 -0.15323384 0.022669945
000100 bc a1 f9 3d 17 d7 e6 3e 9f af 83 bd b3 06 99 bd
       0.121890515 0.45085976 -0.064299814 -0.07471981
000110 5c b8 2e 3e fd 5c ce 3e 87 e1 37 bd 86 05 80 3e
       0.17062515 0.4030532 -0.044892814 0.25004214
000120 f5 04 ae 3d 3d ee e6 bd bd a6 94 be 80 00 56 3e
       0.08497039 -0.11275909 -0.2903346 0.20898628
000130 38 54 87 3e 35 4a 17 3d 14 3f 0d 3e 9c e3 50 be
       0.2643144 0.036936004 0.13793594 -0.20399326
000140 4d 3b ea 3d 93 7f 18 3e 96 1e 12 3e 03 df 5c 3e
       0.11437092 0.14892416 0.1426948 0.21569447
000150 86 4c 31 b9 ac 53 c1 3e 39 03 6c 3d d2 51 c7 be
       -0.00016908543 0.3775915 0.05762026 -0.3892961
000160 6f ca 32 3e cb 66 5b bd b6 6b d4 bd a2 56 dc 3d
       0.17460035 -0.053564828 -0.10372107 0.107587114
000170 db ba 51 be 36 8d 8e 3d b9 d6 03 be f7 91 40 3d
       -0.20481436 0.069605276 -0.12874879 0.047014203
000180 e8 07 a3 bc b5 15 a9 3e fd ee e0 3b 4c 11 d9 3d
       -0.01990123 0.33024374 0.006864427 0.10599002
000190 b0 b0 fb bd a3 49 02 3d be b4 91 3e 1b 57 1d 3e
       -0.1228956 0.031808507 0.28458208 0.1536526
0001a0 98 cc 73 3e 9e f1 73 3e 4c b3 db bb 5f 9c 36 3d
       0.23808515 0.23822638 -0.0067047235 0.04458272
0001b0 1a 01 d9 bb 4a 44 db 3d 6e 71 9d 3e 65 1b 85 3e
       -0.006622446 0.107063845 0.30750602 0.25997463
0001c0 b5 87 65 3e a0 97 90 be be 18 90 3d 3c 44 69 bd
       0.2241505 -0.2824068 0.07035969 -0.05694984
0001d0 51 00 20 be a4 d6 b1 3d 25 da 54 3e 12 c6 14 bd
       -0.1562512 0.086835176 0.2078634 -0.036321707
0001e0 96 41 fe 3e 34 ff 15 bd 73 14 02 bd 04 d8 2a 3d
       0.49659413 -0.036620334 -0.031757783 0.041709915
0001f0 f6 09 72 be a5 b4 f0 3d b2 6d dd be 5b cb 12 bd
       -0.23636612 0.11753205 -0.43247753 -0.035838466
000200 3b 31 03 3e d2 72 eb 3e 6e 97 c4 3c 20 08 9b 3e
       0.12811749 0.45986038 0.023997989 0.30279636
000210 96 b5 30 3d c9 b4 94 bd b0 01 96 be 49 84 82 3e
       0.043141924 -0.072610445 -0.29298162 0.2549155
000220 29 b0 40 bc bd 06 50 bd 4a ff 2e 3e a4 8e 01 3e
       -0.01176075 -0.050787676 0.17089573 0.1265207
000230 c1 25 97 3d 30 7f c4 be 96 e9 a1 be 3c 8a 61 bd
       0.07380248 -0.38378286 -0.31623524 -0.05506347
000240 18 13 12 be 20 26 e9 bd 90 98 6d 3e f9 25 11 bb
       -0.14265096 -0.11384225 0.23202729 -0.0022147878
000250 68 5b ae bd f2 de 8f be 59 23 d1 3d 7f 0d 92 3e
       -0.08513528 -0.2809978 0.1021182 0.28525922
000260 ef 52 05 3f b8 61 be bd 9a bc f8 3d f9 ad 21 bd
       0.5207967 -0.09295982 0.12145348 -0.039472554
000270 cd b7 23 bd 7a 43 d3 bd ae ab d3 bd 51 d4 f4 3b
       -0.039970208 -0.103156045 -0.1033548 0.007471599
000280 ac 9d 96 be c0 0f c7 3e d8 a6 f4 bd 3b 13 89 3d
       -0.2941717 0.38879204 -0.119458854 0.06693121
000290 40 31 d8 bd 81 ad 5c be 65 a0 90 bc 9d 7c 97 3c
       -0.10556269 -0.21550561 -0.017654607 0.018492037
0002a0 0b cc 94 bd 7c 3d 46 be b4 6d 12 3f 73 6b fd bd
       -0.072654806 -0.19359392 0.57198644 -0.1237401
0002b0 91 0c 89 bd ae e0 0d be 5a bb ba bd 81 90 ee be
       -0.0669185 -0.1385524 -0.09117766 -0.46594623
0002c0 e4 f2 aa bd 45 a1 be bd 45 48 00 be a4 3b da 3d
       -0.08347109 -0.093081035 -0.12527569 0.10655907
0002d0 60 47 28 3e 5a 9d 26 3f a8 fb 72 3d 8c 73 37 3d
       0.16433477 0.6508385 0.05932203 0.04478793
0002e0 9c 90 1d 3f a4 19 0f bd 2f 39 a5 3e f4 88 d0 bd
       0.6154878 -0.034936562 0.3227019 -0.10182372
0002f0 99 71 fa 3d aa 20 d5 3c 8d 52 25 3e 6e cf a4 3c
       0.12228698 0.026016552 0.16144772 0.020118441
000300 b6 3f d1 bd 43 fa 80 bd 3f c0 f0 bd 51 c3 02 3e
       -0.1021723 -0.06297734 -0.11755418 0.1276982
000310 f2 7b 87 be 71 49 eb 3c 32 72 bf bd 1b af 68 3e
       -0.2646175 0.028721543 -0.09347953 0.22723047
000320 01 98 8c 3d 2c 67 ca bd bb e1 90 3d 35 ff 9a bd
       0.0686493 -0.0988296 0.07074305 -0.07568208
000330 4e e9 64 bd 60 eb b5 3d 81 47 09 be 6a 31 87 bd
       -0.05588656 0.08882785 -0.13406183 -0.06601222
000340 d1 3e 34 bd 3d 1d 3d 3e 86 a1 17 3e 9d 4f 2d 3e
       -0.04400522 0.18468185 0.1480771 0.16924901
000350 93 56 b2 3d 21 f3 cf bd cf cd c3 3d 3b 5e f7 bc
       0.08707919 -0.10153795 0.09560739 -0.0301963
000360 69 46 ee 3c b5 f9 a0 bd ee 80 d9 3d 26 e5 be bb
       0.029086309 -0.07860128 0.106202945 -0.0058256565
000370 27 17 4d bd b0 07 97 bd a1 ef a4 3b 6f 21 c9 bd
       -0.050070908 -0.07374513 0.005033449 -0.0982083
000380 32 d0 c0 3e 3a 8c c3 3d e4 7b 3d bd 7b 29 05 3b
       0.3765884 0.095482305 -0.04626073 0.0020318914
000390 d4 bc 0c 3e 85 4c 77 3d d5 8c 45 bc 36 10 04 3d
       0.13743907 0.06037571 -0.012057503 0.032242022
0003a0 89 bf 64 bd ff 5e 35 be 27 0a c0 be 71 2b 89 3e
       -0.055846725 -0.1771202 -0.37507746 0.26790956
0003b0 8c 81 00 3e a4 de 15 bd 2e cb 0e 3e 0b 33 e9 3d
       0.12549418 -0.03658928 0.13944694 0.11386689
0003c0 0a 31 73 bc 6c 86 da be 3c 82 fc 3a 54 8d 79 be
       -0.014843235 -0.4268068 0.0019264887 -0.24370319
0003d0 0a 39 5a bd d7 0b 10 bf b5 36 11 be 26 0b 5a 3e
       -0.053277053 -0.56268066 -0.14181025 0.21293315
0003e0 43 d8 32 be cf fa 68 3a cf 06 bc 3d 0c 62 58 3e
       -0.1746531 0.0008887471 0.09180986 0.21131152
0003f0 81 f8 f7 bd a6 29 c7 bd 58 6d 1b 3e 11 85 83 3c
       -0.12107945 -0.09724741 0.1517843 0.016054662

mention_transformer_1/attention/value/add;StatefulPartitionedCall/mention_transformer_1/attention/value/add;mention_transformer_0/attention/value/einsum/Einsum;StatefulPartitionedCall/mention_transformer_0/attention/value/einsum/Einsum;mention_transformer_1/attention/value/einsum/Einsum;StatefulPartitionedCall/mention_transformer_1/attention/value/einsum/Einsum;12926 f4 [32]
000000 6f 23 ba 3c 6a 70 1b 3d 79 31 92 bd 0d 21 0c bd
       0.022721974 0.037949003 -0.071383424 -0.034211207
000010 c6 6e 95 bb 06 16 3a 3d c8 b2 33 bc e1 e3 0e 3d
       -0.0045603244 0.04543116 -0.010967918 0.03488529
000020 b4 6a 0e bc 3d a3 20 3e eb 6d cc be 37 18 a3 bd
       -0.008692432 0.1568727 -0.3992761 -0.07963603
000030 29 5e 75 bc 8e e6 d7 be 73 b3 8a 3d 39 c7 c4 3e
       -0.014976063 -0.42168087 0.067725085 0.38433245
000040 91 a6 38 3d 5c c1 86 bd 6e 68 88 3d 09 1d b0 be
       0.045080725 -0.06579849 0.066605434 -0.34397152
000050 3d ea e0 bc 20 5b 81 3e 50 1a ea bc bb 2e 8f 3e
       -0.027455444 0.25264835 -0.028577 0.2796534
000060 48 91 3f bd 9c 9f 12 3e 7f 88 c1 3d 2b 08 29 3d
       -0.04676941 0.14318699 0.09449863 0.041267555
000070 36 81 e1 bc ef 8a af 3d 41 92 d2 3d c4 a3 16 3e
       -0.027527433 0.08571421 0.10281802 0.14710909

mention_transformer_1/bottleneck_input/norm/mul;StatefulPartitionedCall/mention_transformer_1/bottleneck_input/norm/mul;sequential_1/dense_3/Tensordot/shape;StatefulPartitionedCall/sequential_1/dense_3/Tensordot/shape;mention_transformer_1/bottleneck_input/dense/add;StatefulPartitionedCall/mention_transformer_1/bottleneck_input/dense/add;mention_transformer_1/bottleneck_input/dense/einsum/Einsum;StatefulPartitionedCall/mention_transformer_1/bottleneck_input/dense/einsum/Einsum;12902;12904 f4 [32, 32]
000000 90 3b 80 3d 02 37 d3 3d 4d 76 b9 3d 52 77 91 bd
       0.06261361 0.10313226 0.09055767 -0.07102837
000010 8d 3f 12 bd a3 a4 be bd d2 28 17 3d 98 17 bd be
       -0.035705138 -0.09308746 0.036904164 -0.36932063
000020 89 91 1f be 2d b5 9a be c7 85 21 be e7 57 b3 3d
       -0.15582861 -0.3021635 -0.15773688 0.087570004
000030 85 81 96 3c 06 c5 6e 3e b5 7e 81 3e fa 91 26 be
       0.018372307 0.23317346 0.25291982 -0.16266623
000040 2f 63 41 3e 11 18 f9 3b b7 af 0a bd 6e 5e 14 3f
       0.18885492 0.007601746 -0.03385898 0.5795659
000050 7d 49 da bc bb a1 37 be f8 b8 d3 3d ec 25 06 3e
       -0.02664637 -0.17932789 0.10338014 0.13100404
000060 92 c4 3c be c8 3c 95 be 7f 16 a2 3b 05 e6 0d be
       -0.1843436 -0.29147935 0.0049465294 -0.13857277
000070 e1 13 ca 3d 8e 60 17 3d 03 83 a5 be a2 0a de 3d
       0.09867073 0.036957316 -0.32326517 0.10841872
000080 be c8 17 bf 82 9d b0 bd 09 42 ed bc 48 60 56 3e
       -0.59290683 -0.08623792 -0.028962152 0.20935166
000090 80 24 24 be ba 85 ba 3d eb 7e 06 3d 6b dc d4 bd
       -0.16029549 0.091075376 0.032835882 -0.10393604
0000a0 e6 88 a4 3e 15 ad 2d be 0c 6a a0 3d a5 31 a3 be
       0.32135695 -0.16960557 0.07832727 -0.31873813
0000b0 9e b9 43 3e 23 7a 8a be e5 a2 c1 3e c7 89 4c be
       0.19113776 -0.27046308 0.3781959 -0.19974433
0000c0 21 65 3c 3e 09 8a 35 3e 8d 7e c6 be a2 8f 4e be
       0.18397953 0.17728437 -0.38768426 -0.20171979
0000d0 e8 1c 70 ba 39 6d 05 3d 71 42 4a be dc df a0 bc
       -0.0009159581 0.032574866 -0.19751908 -0.019637994
0000e0 52 fe 6f be 96 aa 3a 3c 84 f4 6c 3b d0 66 3e bd
       -0.23436859 0.01139321 0.0036156485 -0.04648477
0000f0 66 56 f0 3b 0e ba 61 bd 58 a7 77 bd c6 b0 6e 3c
       0.0073345182 -0.055109076 -0.060462326 0.014568513
000100 a7 dc be 3d 95 3d b4 bd 6e 45 0d 3e d5 9c f3 be
       0.0931943 -0.08800808 0.13796017 -0.4758059
000110 3e c1 0e 3e 26 c9 56 3e 5d d6 8c be 37 f4 7e bd
       0.13940904 0.2097517 -0.27507296 -0.06224462
000120 26 83 dc bd 06 d6 34 3d f8 5b ea bd 7c be 59 bd
       -0.10767202 0.04414942 -0.11443323 -0.053160176
000130 5e 1e 4c be 13 64 69 be 30 ff 73 bd b9 29 94 3d
       -0.19933459 -0.22792082 -0.059569538 0.072345205
000140 f7 f9 fd 3c 6f e3 47 3d ca da 13 be a7 af ad 3e
       0.031002982 0.048800882 -0.1443893 0.33923075
000150 a6 19 02 3c 8d 14 be 3e 19 77 15 be 5b a1 8f bd
       0.007940685 0.37125054 -0.14596213 -0.07013198
000160 96 f8 b1 bd 46 79 1d bf 14 52 6d be c4 fe 45 be
       -0.08689992 -0.61513174 -0.23175842 -0.19335467
000170 3c 0d 35 3d d5 51 c1 3d 4e e6 06 be e8 27 ec 3c
       0.044202074 0.09439436 -0.13173792 0.028827623
000180 5e 0d 0e be 2a 92 a6 bd 66 53 3b be bb 15 47 be
       -0.13872287 -0.08133347 -0.18293533 -0.19441883
000190 03 72 c3 bd 02 24 7b 3e 66 b7 1b 3d bb a3 15 be
       -0.095432304 0.24525455 0.0380167 -0.1461324
0001a0 90 ed 2c 3e d5 3b ba bd c0 da 4f bc 37 b4 06 be
       0.16887498 -0.09093443 -0.012686431 -0.13154684
0001b0 2d 9d 80 bb 5c a6 1a 3d 3e 99 3a bc d5 87 ce bd
       -0.003924987 0.03775631 -0.011389075 -0.10084502
0001c0 4f 77 ec 3c 5b 15 4d bc d7 21 14 3e da 9f f0 bd
       0.028865485 -0.012517299 0.14466034 -0.11749239
0001d0 6f 41 0b bc e7 25 87 3e d0 14 65 bd 20 93 c8 bd
       -0.008499487 0.26396105 -0.05592805 -0.09793687
0001e0 ee c8 2f be bc 85 25 bd b2 87 14 bd 8a 8d 0f bd
       -0.17166492 -0.040410742 -0.03626222 -0.03504709
0001f0 ae 39 15 bd 37 6d 3e 3d 46 b1 0b 3e 69 b5 37 bc
       -0.03643196 0.046490874 0.13641843 -0.011212685
000200 6d e7 87 3e 3c 84 93 bd c3 cc 32 3e 3c d8 24 be
       0.2654375 -0.07202956 0.17460923 -0.16098112
000210 fa 5e 84 be 79 d4 62 3d 64 b5 a7 3d 96 2e 03 3e
       -0.2585371 0.05537841 0.081888944 0.1281074
000220 be 57 e5 bd 85 f4 7d 3d 50 e3 aa bd 40 d4 75 be
       -0.11198376 0.06200077 -0.08344138 -0.24006748
000230 20 8e d5 3c 75 35 b6 be bc 7b 27 3d cd f5 c0 be
       0.026068747 -0.3558766 0.040889487 -0.3768753
000240 4d e0 c4 bd 9f 59 c3 be 67 aa 73 be 6b fd 0a 3e
       -0.096130945 -0.38154313 -0.23795472 0.13573234
000250 79 aa d1 bd f1 24 85 be 4d 8e cf bc 22 96 ae 3e
       -0.10237593 -0.26004747 -0.025336409 0.34098917
000260 9c 4c 71 bd 70 ac 92 3d 27 9c 9d 3e fd f0 a1 3d
       -0.05891095 0.07161796 0.30783197 0.07907293
000270 57 14 7a 3d 24 57 81 3e 90 1d 2c bc f3 ed be 3e
       0.061054554 0.25261796 -0.010505095 0.37290916
000280 bd 7e 8a 3d 9f 16 5a bd 09 50 99 3d 61 f7 2d 3d
       0.06762455 -0.05324423 0.074859686 0.042472247
000290 25 70 93 be d2 8e 78 bc b9 95 b0 bc 46 f8 16 3e
       -0.28796497 -0.01517077 -0.021555768 0.14743146
0002a0 e6 c2 3b be 1a f3 4b be bf d9 89 3d ad 9a 27 3e
       -0.18336067 -0.19916955 0.06730985 0.16367598
0002b0 f1 f5 0f be cb 8b 15 be 5f a2 22 3f 9c 11 8f 3b
       -0.14058663 -0.14604108 0.6352901 0.004366113
0002c0 73 85 d1 3e ea 14 21 be 28 1c 0e 3e bf 86 92 be
       0.40922126 -0.15730634 0.13877928 -0.28618428
0002d0 db 02 50 be ce 97 72 be 6b 0c 5c bc f0 45 bd be
       -0.2031359 -0.23690721 -0.013430695 -0.3696742
0002e0 77 20 83 3d f6 7b 2f bd 1c 79 00 bd b7 37 45 3e
       0.064026766 -0.042842828 -0.0313655 0.19259535
0002f0 18 2f 8d 3e 28 39 dd 3c 21 5c c0 bd d2 f7 d5 bd
       0.27574992 0.027004793 -0.09392572 -0.104476586
000300 5a a4 3b 3e ba 82 35 be 23 e1 51 3e 9e d8 21 be
       0.18324414 -0.1772565 0.20496039 -0.15805289
000310 40 73 4a bd 32 8a 9d 3d 3a db 7a 3e d5 ca b1 3c
       -0.049426317 0.07692374 0.24497691 0.021703163
000320 3e 0b 4e 3d ba 6b 2d 3c 43 0b 9f 3e d3 a2 f6 3d
       0.05030369 0.010584766 0.3106328 0.12042775
000330 b8 d7 04 3e 51 6e 7b 3e a9 14 0b 3e f8 6d 67 bd
       0.12972915 0.24553801 0.135821 -0.05650136
000340 09 f3 0d 3e c8 1c 74 be bf b7 2d 3e df ff ed 3d
       0.13862242 -0.23839104 0.16964625 0.11621069
000350 5c ba 96 be 4b a4 11 bd c3 87 55 be 63 2a c6 bd
       -0.29439056 -0.035557073 -0.2085257 -0.096760534
000360 1d 82 09 bd 98 82 05 3d b2 96 85 3d e8 fe 0a bd
       -0.03357135 0.032595247 0.065228835 -0.033934504
000370 50 fb 73 be bc 90 f3 3d 33 b2 15 be 3e 1f 32 bc
       -0.23826337 0.1189284 -0.14618759 -0.0108717065
000380 01 f0 1a 3e b2 61 3d 3e 5d e4 0e 3e 11 78 33 3e
       0.15130617 0.18494299 0.13954301 0.1752627
000390 3f 7b 95 3d cf 36 04 3d 22 3f 80 be 89 87 8f bc
       0.07298898 0.032278832 -0.25048167 -0.017520683
0003a0 56 a0 aa be dc 4a 36 3e 4e 27 64 3e ae 79 0a be
       -0.33325452 0.17801994 0.22280619 -0.1352298
0003b0 86 78 33 be dc 63 ac be 38 17 9f be 6f b6 ae 3e
       -0.17526445 -0.33669937 -0.31072402 0.3412356
0003c0 63 ac e7 be 9e d5 84 be 8d 98 02 be cd 58 68 be
       -0.45248708 -0.25944227 -0.12753506 -0.22690125
0003d0 cb ee 25 be e7 80 f7 bd 23 c2 79 be cc 62 c0 3d
       -0.16204374 -0.12085133 -0.24390464 0.09393844
0003e0 a9 01 ac 3d 40 44 57 3e 25 7d e8 3e ae 93 8d 3d
       0.08398754 0.21022129 0.45407978 0.06912933
0003f0 ec 74 7c bd 3d 0b e6 bc d3 df 7b 3e 53 bd 82 3e
       -0.061634943 -0.02808153 0.24597101 0.25535068

context_transformer_0/attention/value/einsum/Einsum;StatefulPartitionedCall/context_transformer_0/attention/value/einsum/Einsum3 f4 [32, 32]
000000 40 3d b4 3e 4e 55 a2 bc e9 7d 82 3e a6 4e cb be
       0.3520298 -0.019816067 0.25486687 -0.39708441
000010 13 f0 b0 3e 29 c7 1d be 28 54 6c 3e d2 28 95 3c
       0.34558162 -0.15408005 0.23078978 0.018207941
000020 07 ae 3d be dd cc 08 bf 6d 5c 24 be f3 4e 81 3e
       -0.18523417 -0.53437597 -0.16050883 0.25255546
000030 99 f7 63 3e 0c 74 0d be d3 8c 20 bf bd 5c 30 bf
       0.2226242 -0.138138 -0.6271488 -0.6889151
000040 d2 37 2d 3d f8 8d 9c be b8 ae e7 bd 6e fa 92 3e
       0.042289563 -0.30577064 -0.11312622 0.28706688
000050 46 30 c4 be d2 33 05 be ff dd e5 3d d8 9f 43 3d
       -0.3831808 -0.13008049 0.11223983 0.04775986
000060 37 34 64 3e 73 30 b4 bd 83 1c 82 bd 19 fe 3e be
       0.22285543 -0.087983035 -0.063530944 -0.18651618
000070 1c 54 84 3e 93 e5 c6 3e a3 d7 1f 3e 82 a9 03 bf
       0.2584542 0.38847026 0.15609603 -0.51430523
000080 2c de 2a 3e a7 79 35 be b2 dc 4b 3e 20 81 67 bd
       0.16686314 -0.17722188 0.19908407 -0.056519628
000090 80 13 90 be 1f a7 d6 be d2 af 19 3f e0 3c e4 3d
       -0.28139877 -0.41924378 0.60033906 0.111444235
0000a0 25 f4 01 3e 7b 1f 70 3c ac 95 65 3e 48 9c 6c be
       0.1269079 0.014655943 0.22420377 -0.23106492
0000b0 f3 08 dc bd 64 57 f4 3e 49 b6 eb 3e f7 84 96 be
       -0.107438944 0.47722924 0.4603751 -0.2939832
0000c0 f0 87 4b be 1f 96 2f bd 41 26 74 3e bd d4 83 be
       -0.19876075 -0.042867776 0.23842718 -0.25748244
0000d0 f6 a6 b7 be 25 da b9 3e d9 2a 2e 3f f7 03 14 bf
       -0.3586957 0.36299244 0.6803413 -0.5781855
0000e0 9e ff 34 be 72 09 b0 3d a5 35 85 be ba d1 0e bf
       -0.17675635 0.085955516 -0.2601749 -0.5578877
0000f0 ff c6 8f bd ba c6 06 3f ba 9c da bd df 44 03 bf
       -0.07020377 0.5264698 -0.106744245 -0.51276964
000100 46 16 79 bd e7 69 96 3e f3 9d 99 3e c8 2a 43 bb
       -0.060812257 0.29377672 0.30003318 -0.0029780138
000110 2a d0 4a be 7c 99 09 3f ad 34 00 3f 6c 3a c9 bd
       -0.19805971 0.53749824 0.50080377 -0.09825596
000120 0f c4 25 bd f9 05 42 be 2a 61 e3 3c af be a5 3e
       -0.04047018 -0.18947591 0.027756292 0.32372043
000130 95 62 99 be ba 26 19 3e fe 8d 37 3f 94 be 49 bf
       -0.29958025 0.1495618 0.7170104 -0.78806424
000140 af 38 89 3d a4 af 9f 3e 18 1f 26 3f 74 52 12 3f
       0.06700265 0.3118869 0.64891195 0.57157063
000150 f1 05 de 3d 03 71 3d 3e 53 26 17 be 5a 4e e5 bd
       0.10840977 0.18500142 -0.14760713 -0.11196585
000160 57 91 55 be 37 9f b8 bd e2 c6 11 bd 9e 37 3c be
       -0.20856224 -0.09014743 -0.03559006 -0.18380591
000170 bd 11 f1 3e 9a 1f 44 bf 59 14 40 be cd ce 75 be
       0.47083846 -0.7661072 -0.18757762 -0.2400467
000180 e3 c5 3d be 1c f3 d4 bd 0b 34 ab 3d 65 43 2a bf
       -0.18532519 -0.10397932 0.08359536 -0.66509086
000190 2b 44 53 3e 6b 38 f0 3e 1f 00 1e 3e f5 74 06 3d
       0.20631473 0.46918043 0.15429734 0.032826383
0001a0 77 4f 2b 3d af 8b 62 be 02 66 f9 be 8c 92 80 3d
       0.04182383 -0.22123598 -0.48710638 0.062779516
0001b0 9a aa 42 3d de 04 95 be 87 09 f4 be 8f 28 49 bc
       0.04752598 -0.29105276 -0.4766352 -0.012277736
0001c0 43 c5 16 3d 70 d1 85 3e a8 75 f2 3e 33 5f 58 3f
       0.036809217 0.2613635 0.4735539 0.8452026
0001d0 8a 68 14 be 81 4e 98 3e b3 41 9f 3e b8 80 81 3b
       -0.14493003 0.29747394 0.31104812 0.003952112
0001e0 0c e4 dc be 32 80 f2 3e b8 4e 2c be 1e c6 ee 3d
       -0.43142736 0.4736343 -0.16826904 0.116588816
0001f0 84 27 a2 3e ef 7a ce 3e 3a 90 ec be 01 1a a6 bd
       0.31670773 0.40328166 -0.46203786 -0.081104286
000200 37 4f ef 3d 73 c9 5d be 5f 6f 68 3e 74 bc 8d 3d
       0.11685031 -0.21658878 0.22698735 0.0692071
000210 c1 97 0e 3e 50 55 93 be 67 2e af bd 5d e8 66 bc
       0.13925077 -0.28776026 -0.085537724 -0.014093486
000220 c1 65 dd 3d 3c 4a 82 3e 07 6f cc 3e 5b d8 84 be
       0.10810424 0.2544726 0.39928457 -0.25946316
000230 6a 9b 8d 3d c0 d9 b3 3e 8a ed 3a 3f f0 9c ca 3e
       0.069144085 0.35127068 0.73018706 0.3957286
000240 57 0f a0 bd 88 5a 0e bd d9 cd 45 bd a0 2d 08 be
       -0.07815426 -0.034754306 -0.048292015 -0.13298655
000250 7e e1 2c be 23 99 3d bc b5 8f 24 3f 1f eb 12 3e
       -0.16882893 -0.011572155 0.6428178 0.14347504
000260 27 25 e5 3d 52 82 7f be a3 8b 9c bd 5b d9 89 3c
       0.11188727 -0.24952057 -0.07643821 0.016827276
000270 df 8d 48 be e1 d5 25 bd 3f 91 4d be 38 58 a6 be
       -0.1958537 -0.040487174 -0.20074938 -0.3248918
000280 56 40 49 bd cc 2f ee 3d a2 83 2c 3f 70 2d 5f be
       -0.04913362 0.1163021 0.67388356 -0.21794677
000290 91 3b 93 3e b8 56 8b be c1 7e b9 be 0e ad 3d be
       0.28756383 -0.272146 -0.36229518 -0.18523046
0002a0 22 87 f6 bd 89 e5 e6 3e 91 d8 48 be 47 4d 56 3e
       -0.12037493 0.45096996 -0.19613864 0.20927916
0002b0 b0 a3 32 3e 76 4d 51 3e 62 1a 13 bf 59 16 2c be
       0.17445254 0.20439705 -0.5746213 -0.168054
0002c0 2a 3e ac 3a fc aa ed 3e 2f 7c 82 be 62 0e 9d 3d
       0.0013141085 0.46419513 -0.2548537 0.07668759
0002d0 46 1e 40 be 6e 31 28 3e c1 73 c1 3e fc 74 83 3e
       -0.18761548 0.16425106 0.37783626 0.2567519
0002e0 fd e2 5c 3e 51 da 42 be b9 f3 33 bc 29 bb ba 3e
       0.21570964 -0.19028594 -0.010983401 0.36470917
0002f0 4f 25 0c 3f ea 7a 9f 3d d1 5f 82 be f9 00 f1 3c
       0.5474443 0.07787116 -0.25463727 0.02941941
000300 91 0d 47 be ec 7e 4d be 21 5b 1d 3f 67 2a 6e be
       -0.19438769 -0.20067948 0.61467177 -0.23258363
000310 16 a1 af 3e 5f 92 d6 3e 77 98 87 bd d5 29 c3 bd
       0.34302586 0.41908547 -0.06620877 -0.09529463
000320 11 c7 0a 3e 87 29 88 3d 2e 42 e7 bd 84 e1 7f 3d
       0.135525 0.06648546 -0.1129192 0.062470928
000330 90 32 03 3e 00 75 d3 3d 9c 56 08 3f 04 f9 f9 be
       0.12812257 0.1032505 0.53257155 -0.48822796
000340 e0 41 f0 bd 7c 6b f8 3e 28 96 0d 3f d8 e1 ab 3e
       -0.11731315 0.48519504 0.55307245 0.33570743
000350 7a 80 aa bd 14 de fa bd 2b e4 6b 3d da 50 dd 3e
       -0.08325286 -0.12249389 0.057590645 0.43225747
000360 b7 30 23 be 25 cf 26 bc ee eb e7 3c 4c 81 a9 bc
       -0.15936552 -0.010181223 0.028310742 -0.020691536
000370 b6 79 10 bd 12 50 12 bf f6 4a 16 bf 6c a3 13 be
       -0.035272323 -0.5715343 -0.5870813 -0.14417809
000380 53 16 65 be 8c 6d 07 3f fa d3 94 be 24 40 a7 3e
       -0.22371797 0.5290153 -0.29067975 0.32666123
000390 e0 3f a0 bd 1d 2c 15 bf b4 74 46 be 41 57 4d be
       -0.07824683 -0.58270437 -0.19380456 -0.20052816
0003a0 60 cc 6b be be e3 68 3f 55 35 66 3d 3d cc e0 3c
       -0.23027182 0.90972507 0.056203205 0.027441138
0003b0 52 18 6a be 54 11 48 3e 98 16 9c 3e 28 87 61 3e
       -0.2286084 0.1953786 0.30485988 0.22024214
0003c0 f6 a2 49 bd a7 90 5f 3d 4c 0e 9a be fe 32 bc be
       -0.049227677 0.05458131 -0.30089033 -0.36757654
0003d0 00 ba 39 3d e2 41 60 3e 52 e0 0b 3f 9d a5 ae be
       0.0453434 0.21900132 0.5463916 -0.34110728
0003e0 9e 58 ee 3c 8a 00 f8 be 07 5c 5f be 4e 41 b4 3e
       0.02909499 -0.4843791 -0.2181245 0.35206074
0003f0 6f 2d d4 3e b7 bd ed bd e1 3d 63 3e a1 72 56 3e
       0.41440913 -0.11608451 0.22191574 0.20942165

context_transformer_0/kq_shared_bottleneck/dense/einsum/Einsum;StatefulPartitionedCall/context_transformer_0/kq_shared_bottleneck/dense/einsum/Einsum f4 [32, 32]
000000 4d c6 66 be 33 15 2c be 75 62 11 3e c1 7d 9b bd
       -0.22536583 -0.16804962 0.14197715 -0.07592345
000010 58 d8 84 bd 4a b4 5a 3b 91 ca d6 bd 82 60 7a bd
       -0.06486577 0.003337162 -0.10487855 -0.061127193
000020 72 ef 05 be a0 70 86 bc 97 89 3f 3e 23 09 6b 3c
       -0.13079622 -0.016411126 0.1870483 0.01434544
000030 75 97 09 bd ec fd 10 3e a6 ff fe bd 57 28 f8 3d
       -0.033591706 0.14159364 -0.12451105 0.12117069
000040 b4 9c c5 3c 8a 31 18 3d 48 52 b0 bd 89 4d c2 be
       0.024122573 0.03715662 -0.08609444 -0.3794978
000050 f3 29 8b 3e 4d 69 d3 bd cc 3a ec 3e b0 41 01 3e
       0.27180442 -0.10322819 0.46138608 0.12622714
000060 63 ce 01 be a1 b2 2a be 7f 69 a3 bc 99 3e f7 3c
       -0.12676387 -0.16669704 -0.019947765 0.030181216
000070 07 0d 32 be a2 c3 94 3e e3 0b c4 bc 7e 89 88 3d
       -0.17387782 0.29055506 -0.02393145 0.066668496
000080 67 76 a9 3e cc 9e f8 bc 3c e4 cc bd da 62 dd 3d
       0.33098146 -0.030349158 -0.1000447 0.1080987
000090 ff c7 3a bd c0 44 05 3e 27 7f a2 3d 2f 60 a0 3e
       -0.045600887 0.13014507 0.07934409 0.31323382
0000a0 68 b5 37 3e 78 ac 90 3d e8 27 1a be a4 76 a2 3c
       0.17940295 0.07064146 -0.15054286 0.019831963
0000b0 80 52 30 be c6 8a 19 be 84 cd 15 bd 5e 24 07 be
       -0.17218971 -0.14994344 -0.036572948 -0.13197467
0000c0 f9 17 55 bd 1a 0f 4f 3c b2 83 9b 3d ad 59 73 3e
       -0.052024815 0.012637878 0.07593478 0.23764677
0000d0 e8 30 5f be c9 04 7b 3d 77 9c c6 be c3 33 7e bd
       -0.21796 0.06128386 -0.38791248 -0.062061083
0000e0 4f f0 19 3e a5 de 1d 3d 33 fa c2 3c 5c 67 19 be
       0.15033077 0.03854241 0.023800945 -0.14980835
0000f0 89 0f 4d 3e a6 58 94 39 a6 24 27 3e ed 64 aa 3d
       0.20025457 0.00028294808 0.16322574 0.08320031
000100 10 65 60 be 57 35 fe bd a6 44 15 3d 78 bd 6a be
       -0.21913552 -0.124125175 0.03644242 -0.22923839
000110 0c 3a d5 bd 62 a3 2a 3e 1b d4 af 3d 45 87 fc bc
       -0.10411462 0.16663888 0.08585378 -0.03082622
000120 93 41 a4 be db 22 f6 3c 7f 4d 27 3e 76 a2 1a 3e
       -0.3208128 0.030045917 0.16338156 0.15101036
000130 e2 55 81 be 13 3d c9 3c 78 e6 24 bc 75 e8 82 bd
       -0.25260836 0.024565255 -0.010064714 -0.06391994
000140 3d 6c ac 3d a3 73 ce 3c 46 fb 01 be 08 2f df be
       0.08419082 0.025201624 -0.1269351 -0.4359057
000150 61 a7 45 3e 0e 29 10 be 25 13 cc 3e 4e a5 01 3e
       0.19302131 -0.14078161 0.39858356 0.12660715
000160 53 05 19 bd 4a c4 72 be 0b 51 d6 bd 6d 8a d1 bb
       -0.037358593 -0.23707691 -0.104646765 -0.0063946755
000170 c5 b9 2d be c5 39 c5 3e b5 40 b7 3d 04 ea 53 3e
       -0.16965397 0.38520637 0.08947889 0.20694739
000180 d8 bb b6 3e ed c3 bb 3d 98 90 95 bd f2 24 4b 3e
       0.35690188 0.09168229 -0.0730297 0.19838312
000190 2a d2 27 3b f1 66 2f 3e bf c7 28 3e 20 10 ae 3e
       0.0025607445 0.17129113 0.16482447 0.33996677
0001a0 d2 64 11 3d d1 7c d1 3d dc 18 22 be fd c8 0a 3e
       0.03549654 0.10228885 -0.15829796 0.13553233
0001b0 5e 51 1d be 0e b7 28 be 5b c0 89 3c b5 56 83 be
       -0.1536307 -0.1647608 0.016815355 -0.2565209
0001c0 4e d2 97 3d 8d fd 20 3e da 96 c5 3d 92 ed 13 3e
       0.07413159 0.15721722 0.09647913 0.14446095
0001d0 d5 3a 75 be 8a 53 bb 3d c1 93 dc be de 57 5b bd
       -0.23948224 0.09146793 -0.43081477 -0.053550594
0001e0 1a 0a 2e 3e 75 d9 e1 3b 8a bf 90 bc d6 0c 32 be
       0.16996041 0.006892378 -0.017669458 -0.17387709
0001f0 a1 8a 65 3e d3 51 a7 3d 4e 48 88 3d 3e e2 a5 3d
       0.22416164 0.081699036 0.06654416 0.08099793
000200 27 6f 27 bd 46 00 75 3e a2 26 3d bd 05 b2 bd 3e
       -0.040877488 0.23925886 -0.04617942 0.3704988
000210 6c 0a 85 3e 42 09 1d 3e 1b 87 5e be 93 bb 85 bd
       0.25984514 0.15335563 -0.21731226 -0.065299176
000220 ba fd 31 3e 2e 6d f5 bb 24 6e 4e 3d c3 91 3d bd
       0.17381945 -0.007489822 0.050398007 -0.046281587
000230 3f 12 f2 3d 8f d9 6c be 1d 4a 3f 3e 2a 8b 43 3e
       0.118198864 -0.23129867 0.18680616 0.19096056
000240 64 dd 4c bd 49 0b a5 be 36 65 34 3d 30 45 a1 bd
       -0.050015822 -0.32235172 0.044041835 -0.078745246
000250 d8 4d 4d bd c9 02 8c be 74 8d 07 3f f6 de 61 3d
       -0.050123066 -0.27345875 0.52950215 0.055144273
000260 35 18 7b 3e 22 5b 1b 3e 38 51 6c be 04 bd 82 3d
       0.24520953 0.15171483 -0.23077857 0.06383708
000270 eb 1b ac bd d1 9a 3a be 18 10 c2 be 7e 07 47 bc
       -0.084037624 -0.1822312 -0.37902904 -0.012147782
000280 6e e7 75 be 50 11 12 bd ea 0f 6a 3e ca 43 1c 3c
       -0.24014065 -0.03566104 0.22857633 0.009537647
000290 31 70 84 3e 19 3d 6a be 48 3e d0 bd c4 ab 0d be
       0.25866845 -0.2287487 -0.10168129 -0.13835055
0002a0 ad 10 9f be 69 c4 09 be 9e 26 97 3d ea 25 03 3d
       -0.3106741 -0.13453831 0.073804125 0.03201858
0002b0 4b fb 3f 3e e4 99 31 bd c8 89 02 3c c4 cc 46 3e
       0.18748204 -0.043359652 0.00796742 0.1941405
0002c0 23 a7 ae 3d 4e ed d8 3d 48 fb e0 bd 29 28 8c be
       0.085279725 0.10592137 -0.10985428 -0.2737439
0002d0 78 e3 2e 3d 01 e4 86 3d 20 a8 8e 3e cf 73 b9 3c
       0.0426974 0.06586457 0.27862644 0.02263823
0002e0 d0 48 a0 bd db 2e 03 3e bf 98 fd 3c 16 fc cb 3d
       -0.07826388 0.12810843 0.030956624 0.09960191
0002f0 b2 23 8d bd 5c c9 79 3d f0 4b 30 be 39 ee 06 bd
       -0.06891574 0.060983047 -0.17216468 -0.03294203
000300 e9 83 a2 3e bb 41 f2 3b 5c a8 8d bd aa 6a d3 3d
       0.31741264 0.0073930896 -0.069168776 0.10323079
000310 9f 79 b8 bc 2d 7d 3b 3e 7c 0e 2e 3d d1 79 54 3e
       -0.022518931 0.1830947 0.042494282 0.20749594
000320 76 73 74 3e b0 31 54 3d fb 15 ee bd 0c 3e 42 bc
       0.2387217 0.0518052 -0.11625286 -0.011855613
000330 ea 24 28 be 5f 49 14 be 8b aa 3b bc 96 14 88 bd
       -0.16420332 -0.14481114 -0.011454235 -0.066445515
000340 6d d4 a0 3d 4f 67 26 be a0 46 ce 3d e0 5b 8e 3e
       0.07853017 -0.16250347 0.100720644 0.2780447
000350 f9 af 9f bd d6 bc b6 3d 7b 35 02 be ee b5 14 bd
       -0.07797236 0.08922736 -0.12715714 -0.036306314
000360 00 3c cc 3d e9 05 c7 3d e2 54 22 bd 0b ed ed bd
       0.099723816 0.09717924 -0.03963173 -0.11617478
000370 86 f3 ff 3d a1 40 f8 3d 9e 87 38 3e 4f 5c cf 3d
       0.1249762 0.12121702 0.18020484 0.10125028
000380 2d 68 20 be bd 9d cf 3c 2f ba 4a 3e bb bf 73 bd
       -0.1566474 0.02534377 0.19797586 -0.05950902
000390 1f 34 2d 3d 54 72 2c 3e 56 47 2c 3e b8 26 7f 3d
       0.042286035 0.16840488 0.16824088 0.062292784
0003a0 1b 1b c4 be f7 90 aa 3d 83 32 97 3d ed 73 49 3e
       -0.3830193 0.08328431 0.07382681 0.19673128
0003b0 9e c0 e6 bd 08 54 07 3e c0 11 3f bc dc 13 de bd
       -0.112672076 0.13215649 -0.011661947 -0.108436316
0003c0 3b 86 4b 3e f1 4f 44 3e 59 24 68 be ee dd c4 be
       0.19875424 0.1917112 -0.22670116 -0.3845057
0003d0 23 3d 2d 3e bf 4c 87 bd 78 c8 88 3e 06 51 3b 3e
       0.16917853 -0.06606435 0.26715446 0.18292627
0003e0 be dd 3d be 49 77 69 be 7b a5 a2 3d 53 8e 42 bd
       -0.18541619 -0.2279941 0.07941719 -0.047499012
0003f0 24 27 01 3e 03 01 bc 3e e6 85 17 be 0e 19 36 3e
       0.12612587 0.36719522 -0.14797172 0.17782995
